model/hybrid_model.pth (torch, 111511 bytes, 9 tensors)

net.0.weight f4 [128, 139]
00000000: e815 843d 3e64 813d 5e73 babd 8eec 12bd
00000010: 95ce 8cbd a0a7 4139 8255 f9bd 63d2 533c
00000020: 4c26 77bd 415c 91bd a558 afbb d7ba b3bd
00000030: a834 f7bd e283 083d dcd4 253d c186 e63d
00000040: d208 edbd f773 643c 02e3 4dbd 19ec 60bd
00000050: 9487 e1bd 9046 02be fd27 18be 26d9 ebbd
00000060: c48a aabd 7af1 f03d d6be b5bc 85c5 15ba
00000070: ec05 afbd 5a3d 0cbe b41c 4c3d 19fa bfbd
00000080: 60f2 67bd 4b92 c7bd 5838 1dbd 3716 b8bd
00000090: 3597 f7bd 2a27 cb3d 032a b43b ea79 c3bd
000000a0: a17a 1c3d 162c ad3d cf5e 39bd 320a 25bd
000000b0: a2c2 10bd b59c aa3c e240 cebd de7d a53c
000000c0: 49ff d1bd d98d 12be caae 763c fec7 073d
000000d0: 9ca9 1c3d 9795 88bd 5016 3dbc 2d86 d43d
000000e0: c7ea a4bd 58f6 aebc dfc0 f1bc f94c 273c
000000f0: e479 4abd a5ef a13c b995 81bc d223 5bbd
00000100: 054f edbc 2afe 11be cd84 06be 4f1a cdbd
00000110: c1cd 2cbd 27a5 9a3d 9758 87bd 19f5 d2bd
00000120: 9680 a5bd 8a09 7d3d 5a7d e53d cad5 e4bd
00000130: 5f29 ae3d 73f1 f7bd 1542 ffbc 3ebe 2dbc
00000140: 1691 73bd 9e85 e63d d982 f1bd 0d9f c5bc
00000150: 7f8c 8cbd 9cd3 013d 77ca bdbc 761e f53d
00000160: 9486 553d 045e 0fbe 5a8d 523d 3b67 0d3d
00000170: f965 44bd e159 86bd 2643 59bd 95d3 95bd
00000180: 4c84 d3bd c037 fb3c f9c4 1e3d 77c2 c9bd
00000190: f9ca 4cbd 7b21 3fbd 36f5 10be f4bd 3b3b
000001a0: e101 513c 9273 96bd 0b78 f0bd 96ff 29bd
000001b0: 4b1e 9bbd 1a1f d7bd 986a 00be 6f79 423d
000001c0: 3c05 90bd d05c 8fbd 28a7 10bd 516a 34bc
000001d0: cd3d aa3d 6ad9 37bd 1a80 2cbc 6056 3cbd
000001e0: 035b 8ebb f105 29be 2751 bcbd 9f7f 743d
000001f0: 45e3 b33d bafb d7bd c11d b0bd ec4d f6bd
00000200: 032e 2cbd ff53 d03d 949f bc3d b449 203d
00000210: b8f5 7cbd 3b6e d5bd 4e75 9e3d f897 043e
00000220: cf18 923c 5800 c1bc f921 90bd 55a5 c03c
00000230: 3e33 bf3c 9b60 c33d 8620 28be 9b2b ff3d
00000240: 9a25 babc 7735 efbd 7631 0e3e 6015 f3bd
00000250: 29ea 0dbd 0370 eabd bb10 b13d 017f dd3d
00000260: 93af 3f3d e858 c5bc e540 1c3e 8229 ec3d
00000270: 0a76 2ebd 6c0b 543d e8e4 8b3d f246 78bd
00000280: 42b1 99bc 7874 f93c 96bc 113d 23a9 b03c
00000290: c9f0 103d 818f 293e 156a 903d cb41 de3d
000002a0: 32fd e7bd ad09 043e 0d3f e23d 9340 bcbd
000002b0: d945 df3d 43f3 873d c30a e33d dfc6 ba3d
000002c0: 8c03 e63d 227b 50bb 3f8a f13d 88e8 d9bc
000002d0: d88d ec3d 3c9b 02be bd61 f83b 6c04 083e
000002e0: 4373 8a3d cee6 063e f5d3 803c 3588 bebd
000002f0: 57bb 4cbd 47e1 f33d 5a7f 103e 9db5 36bc
00000300: 87c9 ef3d 8108 1c3e 74f9 a1bd ec0a 23be
00000310: c876 67bb 2e71 a6bd 54cd 8abd 48b1 fc3d
00000320: 4044 333e 6540 ea3c ecd2 9dbc d524 b5bd
00000330: 76f8 7ebd 58b7 b93d 547b 433b f3b5 703d
00000340: bb03 773d 6c67 933d d1fb b0bd 4a60 b5bd
00000350: dd1d debd 4814 83bc 79b8 ff3d 9211 8d3c
00000360: c3a5 38bd 917c c4bc 0cd5 ad3b 169d 1f3c
00000370: 988b bfbd c52f b7bd 2573 8ebd cf39 563a
00000380: 160e 6abd a3f0 d4bd 6ab6 fbbd 9a44 10be
00000390: 7167 95bc 8b5e 663d be41 03be 019e bc3d
000003a0: 2d80 a2bd 914f 8e3d 0670 563d 4ad8 bc3d
000003b0: eeb3 8c3d 2501 a43d ca04 8bbc 1a4d be3d
000003c0: b326 433d 879f 473c 8b32 be3d 59ec 6d3d
000003d0: 53a8 fbba 4f78 7b3d 8a2d a93d 909a b2bd
000003e0: d47d c4bd 6307 fc3c b64a 603d bb19 103e
000003f0: d894 043d b6d0 783c eb44 8bbd 6a0b afbd
0.06449491 0.06317948 -0.09104036 -0.035870127 -0.0687534 0.0001846836 -0.121745124 0.012928578
-0.060339257 -0.07097674 -0.0053511434 -0.08775871 -0.1207059 0.0333289 0.0404862 0.11256171
-0.11573948 0.013943664 -0.05026532 -0.05491266 -0.110121876 -0.1272223 -0.14859004 -0.11516027
-0.08327249 0.11764808 -0.022185724 -0.00057133316 -0.085460514 -0.13695279 0.04983206 -0.09373874
-0.05662763 -0.097447 -0.03838381 -0.08988612 -0.12089387 0.09919579 0.0054981722 -0.09544738
0.038202886 0.08455674 -0.045256432 -0.040292926 -0.035341866 0.020826677 -0.10070969 0.02020162
-0.1025377 -0.14311923 0.015056321 0.03314971 0.03824769 -0.06669157 -0.011540964 0.103771545
-0.08052593 -0.0213577 -0.029510913 0.010211223 -0.04943265 0.019767592 -0.015818464 -0.053500958
-0.028968344 -0.14257112 -0.13136597 -0.100147836 -0.04218841 0.075510316 -0.06608694 -0.10300655
-0.080811664 0.061776675 0.112055495 -0.111735895 0.08503985 -0.121066 -0.03115944 -0.010604439
-0.059464537 0.11255954 -0.11792535 -0.024123693 -0.06862735 0.031695947 -0.023167832 0.119687006
0.052130297 -0.14000708 0.051404335 0.034522276 -0.04794881 -0.06560112 -0.053042553 -0.07315747
-0.10327968 0.030666232 0.038762067 -0.09851544 -0.049998257 -0.04666279 -0.1415604 0.0028647156
0.012756796 -0.07346262 -0.117416464 -0.04150351 -0.07574137 -0.10503979 -0.12540662 0.04747909
-0.070322484 -0.070001245 -0.035315663 -0.011011676 0.08312569 -0.044885077 -0.010528589 -0.04598081
-0.0043443455 -0.16506173 -0.09195166 0.05969202 0.087835826 -0.1054606 -0.08599425 -0.12026581
-0.042036068 0.10172271 0.092101246 0.03913279 -0.061757773 -0.104214154 0.07737218 0.12948596
0.017834095 -0.023559734 -0.0703773 0.023516336 0.023339864 0.095399104 -0.16418657 0.12459489
-0.022723008 -0.116801195 0.13886055 -0.11869311 -0.03464714 -0.11447146 0.08645769 0.1081524
0.0467983 -0.024090245 0.1525913 0.115313545 -0.04259304 0.051768705 0.0683077 -0.060614534
-0.01876128 0.030451044 0.03558024 0.021565026 0.03538588 0.16558649 0.070514835 0.10852393
-0.1132759 0.12894316 0.11047182 -0.09192004 0.10901994 0.06638195 0.11086037 0.09119963
0.11231145 -0.0031811674 0.117939465 -0.026600137 0.11550492 -0.1275453 0.0075800107 0.13282937
0.06760266 0.13173983 0.015726069 -0.09303323 -0.04998335 0.119082026 0.14111081 -0.011151698
0.1170836 0.15237619 -0.079089075 -0.15922135 -0.0035318602 -0.08127056 -0.067774445 0.12338501
0.17506504 0.028595159 -0.019265614 -0.08844916 -0.06224867 0.09068173 0.0029828148 0.05876727
0.060306292 0.071974605 -0.0864178 -0.08856256 -0.1084554 -0.016000882 0.12486357 0.017220292
-0.045079958 -0.02398518 0.005304938 0.009742042 -0.09352797 -0.08944658 -0.06955556 0.00081720663
-0.05714234 -0.1039746 -0.12290652 -0.1408867 -0.018237801 0.056242507 -0.12818047 0.09209824
-0.07934604 0.0694877 0.052352928 0.09220941 0.06870256 0.08008031 -0.016970057 0.0929205
0.04764433 0.01218403 0.09286984 0.058086727 -0.0019199945 0.061394032 0.08260639 -0.08720887
-0.09594312 0.030765241 0.05475875 0.14072315 0.03236851 0.015186479 -0.068002544 -0.08547099

net.0.bias f4 [128]
00000000: aab7 103d be19 723d da02 143d af68 933d
00000010: b7cc 633d f7a4 67bc 61bd 9ebd e3fc fdbc
00000020: 8153 933d 9a58 96bc d231 6c3c 8553 93bd
00000030: 85ca 2abd 0dd5 683d addc afba 0e01 623d
00000040: d93b 86bd 9477 65bd 9acb 80bd e185 7a3d
00000050: 27fa eabb ceb7 85bd e13f 6b3c a0db 4dbd
00000060: 3192 8dbd da11 643c f778 f9bc 7d62 143d
00000070: ae69 f43c bf49 99bc 4c82 e73c d0be f3bc
00000080: 45f2 05bc 1357 223d 5c44 f53c 9883 063d
00000090: 996e 993d 0d11 0d3d aa77 8a3c 11e2 e53c
000000a0: 2411 c03c 845c d53c f481 013d 937f ef3b
000000b0: ecd8 b1bc fdbf 073d 6d74 483d 70f5 593d
000000c0: ef9f a8bd 5f47 c3bc aa42 e4bc 4eea ab3c
000000d0: 212c 6a3d 6e49 85bd 0f50 91bd 84c0 933b
000000e0: 498a 423d 8727 873c 217e 893d b0e7 8dbd
000000f0: 0e6f 2ebd 98a2 253d 17ec 50bd be3b 1d3d
00000100: 606b 91bd be3f a8bd c256 453c b92a c4bc
00000110: a090 5fbd 4399 6fbd a409 343d a769 b03c
00000120: 688a 48bd 946a 883b 40ef 53bd a073 7e3d
00000130: c8e5 28bd 1324 afbd 505c 5ebd 0336 2dbd
00000140: 6019 58bd de14 11bd 715e 96bd 96a8 1e3d
00000150: e51a 5e3d 0bbc 92bb 98dd a2bd 1683 a6bd
00000160: 9a8b 50bb 53a6 383d ba09 db3c 6f51 993d
00000170: 24fd 20bc 9b8a b1bc 35e0 e5bc 342d 463b
00000180: df3b 3d3d d8b1 6fbd 96cc 423d c85b 0a3d
00000190: d0b6 3cbd ffcb f83c 4b2b 843d 9680 7f3d
000001a0: 8f60 9bbd 072f a43d b69f 683d 2038 85bd
000001b0: 36e7 3bbc ff31 f8bc 33d3 82bd 0fb7 973b
000001c0: aff0 aebc b70e 06bc d72a 50bd 6ff9 acbd
000001d0: f0d0 a03c 2338 97bc cd56 c73c 9234 313c
000001e0: 9f20 2ebd 140a 64bd 8998 06bb c7a8 823d
000001f0: 614f b93b 64b7 8fbd 20fb 4abd cb05 8fbd
0.035331406 0.05910658 0.036135532 0.07197701 0.055615153 -0.014138452 -0.07750965 -0.031004375
0.071936615 -0.018352795 0.014416175 -0.071936645 -0.041697044 0.056843806 -0.0013417207 0.055176787
-0.06554384 -0.05602224 -0.06288834 0.061162833 -0.0071709338 -0.065291986 0.014358492 -0.05025828
-0.069126494 0.013920272 -0.030453188 0.03622674 0.029835548 -0.018711923 0.028260373 -0.029754072
-0.008175437 0.03963382 0.029939823 0.03284034 0.07491798 0.03444009 0.016902763 0.028061898
0.023445673 0.026045091 0.031618074 0.007308909 -0.021709882 0.03314208 0.048939157 0.053212583
-0.0823363 -0.023837743 -0.02786382 0.020985749 0.05717099 -0.06508146 -0.07095348 0.0045090336
0.04749516 0.01649834 0.0671351 -0.069289565 -0.04258638 0.040438265 -0.051006403 0.038387053
-0.07100558 -0.08215283 0.01204461 -0.023946153 -0.054581285 -0.05849577 0.043954507 0.021534754
-0.04896012 0.0041630957 -0.05174184 0.062121987 -0.04123476 -0.085518025 -0.054287255 -0.042287838
-0.052758574 -0.03542029 -0.07342232 0.038734995 0.054224867 -0.004477983 -0.07952422 -0.081304714
-0.003182149 0.045080494 0.026738036 0.07486235 -0.009825978 -0.021672538 -0.028061012 0.0030239346
0.046199676 -0.058519214 0.04755839 0.033778936 -0.04607278 0.03037071 0.0645357 0.06237849
-0.075867765 0.08016782 0.056792937 -0.065048456 -0.011468699 -0.030297277 -0.06387939 0.0046299766
-0.021355001 -0.008182219 -0.050822105 -0.08446013 0.01963088 -0.018459385 0.024333382 0.010815756
-0.04251158 -0.055673674 -0.0020537695 0.06379848 0.0056552147 -0.07017401 -0.049555898 -0.06983527

net.1.weight f4 [128]
00000000: aa3e 773f 435b 733f e894 883f a157 7e3f
00000010: 0147 813f bd8e 783f 88db 7c3f 3db6 933f
00000020: 70a5 833f aef1 863f d59a 6e3f e334 7a3f
00000030: e944 7b3f c85a 7d3f edd6 903f 02c2 6c3f
00000040: 788f 6c3f 941e 7b3f 034f 933f 56a7 7c3f
00000050: 2ba0 7b3f 3b98 7e3f ecee 7b3f aecf 803f
00000060: 21c5 813f 792a 883f dd3d 7e3f 141c 803f
00000070: 616a 863f f14c 873f 8a6f 753f b02a 853f
00000080: 9046 833f a1bd 763f 8266 783f 5ec4 833f
00000090: d0dd 813f 2156 743f a91c 9a3f 4f3b 803f
000000a0: ab3d 723f 94d4 753f 6701 8c3f 83b1 763f
000000b0: a3c6 763f 8d83 7b3f d7bc 7f3f bdba 8b3f
000000c0: 116c 6f3f ec8e 803f ef52 733f 6d2a 813f
000000d0: b158 873f c619 7e3f b077 7b3f cc81 7e3f
000000e0: a2bf 823f f299 863f 5040 8b3f e9f5 723f
000000f0: 32d1 833f 311d 803f 3e35 823f a3df 813f
00000100: 9936 783f 4c8b 753f f566 833f fd44 7e3f
00000110: 1a30 913f d360 803f eec1 763f 3c50 873f
00000120: eb27 7c3f 09c9 873f 0143 873f 0acc 7b3f
00000130: 8cd4 783f b3d2 933f 1621 7c3f 135b 7a3f
00000140: a32a 823f 140c 853f cd13 7b3f 424b 843f
00000150: c473 733f 45d6 713f 2ac0 773f 5842 793f
00000160: 121b 8a3f 4d22 893f 4d1a 8a3f 9eb1 823f
00000170: a3e1 823f 7af4 813f bd36 813f bdad 783f
00000180: 60cf 8b3f 8a71 823f eecc 803f 610f 843f
00000190: 2116 853f 877b 733f 66bf 773f fc72 873f
000001a0: b3a1 8f3f a141 763f 6d05 803f b638 7b3f
000001b0: 5bbc 843f e8ad 793f bb6d 833f a724 7c3f
000001c0: c40b 6e3f 9da2 7e3f f1b6 843f e0c4 803f
000001d0: 6968 803f 93d6 813f 3c5c 843f 268d 733f
000001e0: 6bcd 7d3f e7a5 823f 08a3 813f 97f0 8c3f
000001f0: 66c6 863f ee7d 8e3f 2a9a 7c3f 638b 8b3f
0.9657999 0.9506113 1.0670443 0.9935246 1.0099794 0.970928 0.9877248 1.153999
1.0284863 1.0542505 0.93205005 0.9773695 0.98152024 0.98966646 1.131559 0.9248353
0.92406416 0.98093534 1.1508487 0.98692834 0.9829127 0.99451035 0.9841144 1.0063379
1.0138284 1.0637962 0.99313146 1.0008569 1.0501214 1.0570356 0.9587332 1.0403652
1.0255909 0.963831 0.97031415 1.0294302 1.0145817 0.9544392 1.2039996 1.00181
0.9462535 0.96027493 1.0937928 0.9636461 0.96396846 0.98247606 0.9989752 1.0916363
0.9352427 1.0043616 0.9504842 1.0091072 1.0573941 0.9925808 0.98229504 0.99416804
1.0214732 1.051573 1.0879002 0.9490648 1.0298216 1.0008909 1.0172498 1.0146374
0.9695831 0.95915675 1.0265795 0.9932402 1.1342804 1.0029548 0.96389663 1.057136
0.9849841 1.0608226 1.0567323 0.98358214 0.9719932 1.1548675 0.98487985 0.9779522
1.0169262 1.0394311 0.9807709 1.0335467 0.9509852 0.94467574 0.96777594 0.9736686
1.0789511 1.0713593 1.0789276 1.0210454 1.0225109 1.0152733 1.009483 0.97140104
1.0922661 1.0190899 1.006254 1.0317193 1.0397378 0.9511036 0.96776426 1.0581965
1.1221222 0.9619389 1.0001656 0.9813341 1.0369982 0.97530985 1.0267862 0.9849343
0.929867 0.9946688 1.0368329 1.0060081 1.0031863 1.0143608 1.0340648 0.9513725
0.9914157 1.0206879 1.0127878 1.1010922 1.0529296 1.1132181 0.98672736 1.0901912

net.1.bias f4 [128]
00000000: f440 47bc f55d 53bd d6e4 c1bd ccd6 fb3a
00000010: 9789 0d3b 3868 4c3c 60f8 98bd 5af7 57bd
00000020: 0de8 04bd 3fa8 37bd 94ae 0dbd 1c80 95bd
00000030: 7788 dcbc 6275 1abd 005e 8bbc cccf b2bd
00000040: 1851 73bd e50b 99bd 0e20 0dbe 01eb 243d
00000050: 9ecd 82bd 7f4c 963c 3667 dfbc 89d6 22bd
00000060: 4d0a dbbd d02c b1bd 3742 643d 703e 46bc
00000070: 1500 7c3d 6156 8bbd 6380 26bd dd89 5a3d
00000080: d553 3cbd 29af 9cbc 3084 6abc a84a 5abd
00000090: b937 78bd 6c54 32bd c8a3 4bbe 34dd 0d3d
000000a0: e967 a0bd 05c8 acbd 7d3f 8ebd 1baf 4bbd
000000b0: 6d8e 26bd 5541 693a 1f28 bbbc 7f3d edbb
000000c0: 5589 d53c 7f55 893d a7bc 943b e22b 323d
000000d0: 94dd 583b 560f 85bc 9cbc 93bc 514e 81bc
000000e0: 4afd 87bc 99b6 d43d 5401 4fbd 51ea fbbd
000000f0: f7b9 3e3d 2f2b 6a3c 016f 763d 05c6 ff3c
00000100: 1b65 a9bd 35fd 7dbd 3fb2 80bd 1dbd 21bd
00000110: d23e 22bc 9346 acbc ba11 af3c fb63 28be
00000120: 2efb 95bd 9dff 47bb 1536 83bd 97ee 42bd
00000130: 5ff6 98bd f98d 67be 001c 14bd ff1b 01bd
00000140: 9444 51bd c50d 8abd a6ea 88bd 26d9 c63b
00000150: c69a 82bd 15d0 24bd bfd9 52bd 81e3 0ebd
00000160: 1242 9e3c 8965 9d3d 035d 103d 27fd 4abd
00000170: 0253 f7bc 49a3 b1bd 7201 053b 381b 25bd
00000180: f17b 23be 085e 253c f3f7 60bc 6ef9 503d
00000190: 11c9 02bd 3081 c6bd d19c e0bc aff8 65bd
000001a0: 76dc 383d 1688 82bc ccca 37bd 1eed 72bd
000001b0: 02c8 1e3d 7964 6f3c cc43 9d3b c8e1 273d
000001c0: c86b 9abd 0882 a9bd df7b 4dbd e190 5cbd
000001d0: b6bd 68bd 8f44 95bd 8993 9fbc c01e 2f3d
000001e0: d7f4 c1bc 168a 26bd 507d fa3c 8a62 d63c
000001f0: c54e ccbc f03f d43c d2d0 d0bb 1ecf a5bd
-0.012161482 -0.051603276 -0.09467475 0.0019213795 0.0021596903 0.01247602 -0.07469249 -0.052726127
-0.032447863 -0.044838186 -0.03459032 -0.072998255 -0.02692054 -0.0377096 -0.017012596 -0.0873104
-0.05940351 -0.07472972 -0.13781759 0.04026318 -0.063868746 0.018347023 -0.027270894 -0.039755378
-0.10695324 -0.086511254 0.05572721 -0.012099847 0.061523516 -0.06803585 -0.040649783 0.053354133
-0.045978386 -0.019126492 -0.0143137425 -0.053293854 -0.060600016 -0.043537542 -0.19886696 0.034634784
-0.07832319 -0.08436588 -0.06945703 -0.04972754 -0.04066317 0.000889798 -0.02284628 -0.007239997
0.026066462 0.0670576 0.0045390907 0.04349888 0.0033091055 -0.016242664 -0.018034272 -0.015784414
-0.01660027 0.1038639 -0.050538376 -0.12300552 0.04656407 0.014292522 0.060164455 0.031222353
-0.082712375 -0.062009055 -0.06283998 -0.039486993 -0.009902673 -0.021029746 0.021370757 -0.1644439
-0.07323299 -0.0030517348 -0.064068 -0.04759082 -0.074688666 -0.22612752 -0.036159515 -0.03152084
-0.05109079 -0.067409076 -0.06685381 0.0060683666 -0.06377177 -0.040237505 -0.05147719 -0.034884933
0.019318614 0.07685382 0.035244953 -0.04955783 -0.030190948 -0.08673722 0.002029505 -0.04030916
-0.15965249 0.01009322 -0.013730991 0.051019125 -0.031930033 -0.09692609 -0.027418526 -0.056145366
0.045132123 -0.015934031 -0.044871137 -0.059308164 0.03876496 0.014611357 0.004799342 0.040986806
-0.07540089 -0.082767546 -0.05016696 -0.053849105 -0.056821547 -0.07288467 -0.01947953 0.042753935
-0.023676319 -0.040659033 0.030577332 0.026170034 -0.024939904 0.025909394 -0.0063725496 -0.08096145

net.1.running_mean f4 [128]
00000000: 8d7b 093d 4490 713d 74c0 133d 3e54 943d
00000010: 7816 5f3d 5031 38bc a197 a2bd 6dc0 00bd
00000020: 5d0c 9a3d ef10 91bc 10d6 533c 3392 88bd
00000030: 7062 2bbd 661f 653d 27c9 6739 22cd 693d
00000040: c327 89bd 8f4d 64bd caa1 71bd 4b0b 7a3d
00000050: bb7c ffbb 1cb9 85bd ed06 1d3c 5e7f 47bd
00000060: 23cc 8bbd 0d66 793c 850b e1bc c75a 0f3d
00000070: 21f3 ea3c 0a21 adbc fe06 ce3c f94c ebbc
00000080: 1b93 f7bb 0037 223d 6191 e43c c8ae 053d
00000090: 7d2f 9a3d 9004 163d 38b3 8a3c 5058 d93c
000000a0: 298f c33c a525 c43c 3751 053d f779 1b3c
000000b0: 2d91 c0bc bb7f 0a3d b52c 463d f83d 553d
000000c0: 30b9 afbd 9c6c e4bc ce41 ecbc 3697 9f3c
000000d0: 5d9d 6c3d 9b52 89bd fe11 91bd 6620 1c3b
000000e0: 9a47 3e3d 066f 883c aca8 883d 0131 89bd
000000f0: 5495 26bd c37a 293d d1e0 62bd 0ea5 113d
00000100: 20ff 94bd 26c1 aabd 4810 5f3c 1b75 cbbc
00000110: 603e 65bd 64bc 80bd f64c 243d b11b a83c
00000120: 31cb 4cbd a6c0 4a3b d485 52bd e0b7 6d3d
00000130: d238 37bd beb1 adbd f45c 57bd 5d53 2abd
00000140: 6131 5fbd 8966 13bd e706 97bd 1676 1d3d
00000150: f6fa 5e3d 49ca 7dbb 71bd 9ebd a42c a4bd
00000160: a4a0 96bb 212b 383d 5d56 dc3c c42a a03d
00000170: 0c5d fcbb 9ebe b0bc 94d7 debc 5647 0c3a
00000180: cb02 3c3d 3428 76bd 1d86 413d 0682 0c3d
00000190: 65ea 3cbd 92fc f73c 66d0 803d 00bb 753d
000001a0: 9b54 95bd 997e a63d abbd 653d 8972 88bd
000001b0: 6521 77bc 41ae f4bc 3e75 89bd 980b e6ba
000001c0: 38c1 b4bc 3bee e2bb 70c7 47bd de90 a9bd
000001d0: 6d9e 973c cb7b 88bc d5a4 bc3c 3fcc 363c
000001e0: fe80 27bd 0c38 5dbd 1b61 bf39 2081 7d3d
000001f0: 9d00 873b 7f97 96bd bb56 4fbd 7657 8ebd
0.033565093 0.058975473 0.03607221 0.072426304 0.054464787 -0.011242226 -0.07939077 -0.03143351
0.07521889 -0.01770827 0.012929454 -0.0666851 -0.041841924 0.055938147 0.00022104812 0.057080396
-0.06697037 -0.05573803 -0.058992185 0.061045926 -0.0077968515 -0.065294474 0.009584171 -0.04870545
-0.06826045 0.015222085 -0.027471313 0.03499868 0.028680386 -0.021133918 0.025149819 -0.028723227
-0.007555378 0.039603233 0.027901353 0.032637388 0.07528589 0.036625445 0.016931161 0.026531368
0.023871975 0.023943732 0.032548156 0.009489528 -0.023506725 0.03381322 0.04838248 0.05206105
-0.085802436 -0.02788382 -0.028839972 0.019481283 0.05776726 -0.06705209 -0.0708351 0.0023823022
0.046455003 0.016654503 0.066727966 -0.066988 -0.040669754 0.04137684 -0.055390183 0.0355578
-0.07275224 -0.083376214 0.013614722 -0.024836114 -0.05596769 -0.06285933 0.04011246 0.020521017
-0.049998466 0.0030937581 -0.05139716 0.058036685 -0.044731922 -0.08481167 -0.05257888 -0.041583408
-0.05449045 -0.035986457 -0.073743634 0.038442694 0.054438554 -0.0038725308 -0.07750977 -0.08016327
-0.0045967866 0.044963006 0.02689665 0.07820657 -0.0077015217 -0.021575268 -0.027202405 0.0005351206
0.0459011 -0.060096934 0.04724704 0.034303688 -0.046121974 0.030271802 0.06289749 0.05999279
-0.07291528 0.08129615 0.056089085 -0.06662471 -0.0150836455 -0.029868247 -0.06711815 -0.0017551063
-0.02206479 -0.006925372 -0.048774183 -0.08279584 0.01850816 -0.016660592 0.023027817 0.0111570945
-0.0408945 -0.05400853 0.00036502708 0.06189072 0.004119946 -0.07353114 -0.050619822 -0.069502756

net.1.running_var f4 [128]
00000000: 349a 663f 6113 8d3f dde2 043f b4e3 3b3f
00000010: 7b09 213f f2a0 6f3f 02c1 573f 22af 783e
00000020: b3b1 e63e a8f9 ce3e 7468 a03f fa35 713f
00000030: ef6e 303f 0dd6 273f c62f d63e 9ffe 8e3f
00000040: 2133 953f 3497 613f 4b8c bc3e c2fc 673f
00000050: 7d1c 103f 0ded 1f3f 3807 343f 44c6 273f
00000060: cc92 1e3f a082 ab3e a239 513f a343 2c3f
00000070: 589d 1e3f dbcb 003f ebab 513f 79b8 353f
00000080: b2c3 203f 96ed 643f 96cf 6d3f f0de 1c3f
00000090: e829 0c3f 5a3e 633f 2428 583e de73 373f
000000a0: b6f8 723f fb36 473f 8e29 c53e 5c8b 533f
000000b0: 7b09 773f 85a5 483f af22 143f bb97 f03e
000000c0: 3407 ab3f e65b 8f3f c1c6 9b3f a8e5 6b3f
000000d0: 2e51 dd3e b85a 0f3f 0367 273f 63a1 063f
000000e0: 3d48 f43e 0e28 903f e4d0 aa3e 7899 713f
000000f0: 3e1d 213f d58a 1e3f 245b 113f bc7c 463f
00000100: f038 4b3f 1f24 493f f701 2b3f 21c9 113f
00000110: bbea 043f 7531 0a3f 93f2 823f 2b88 383f
00000120: c045 2c3f 94c1 2e3f 0ec1 ff3e f358 3d3f
00000130: ef15 713f 6ad6 953e a810 3c3f c894 4a3f
00000140: 7a18 493f 62a3 f03e 1b2e 633f 9cb8 123f
00000150: 701c 4f3f eb8e 843f ff26 463f 9ed8 273f
00000160: 18a4 323f a926 1b3f f56d 2e3f 272e 143f
00000170: 5064 433f 7dc7 0a3f ec8a 013f 74a5 273f
00000180: 19b0 a03e 7787 f73e 3b7f 483f 38f9 1a3f
00000190: 43f7 ea3e 1dcc 703f 816a 6a3f 025e e83e
000001a0: af03 123f 0468 773f 5b1c 323f 181f 1d3f
000001b0: b1d3 113f 775c 873f 8cc2 173f 010e 9b3f
000001c0: 9784 873f 7a54 4b3f ce88 1c3f 09b3 253f
000001d0: 1c02 313f d08e 503f 6c7d 383f c2f3 c73f
000001e0: 2a32 373f d692 343f 7aad 2b3f 349c 043f
000001f0: 77a0 103f 9112 113f 9126 2d3f ea60 ce3e
0.90079045 1.1021539 0.51908666 0.7339432 0.6290509 0.9360496 0.8427888 0.24285558
0.4505745 0.40424848 1.2531877 0.94222987 0.6891927 0.6556099 0.41833323 1.1171454
1.1656228 0.8812134 0.36825785 0.9062005 0.5629347 0.62471086 0.70323515 0.65536904
0.61942744 0.33498096 0.81728566 0.67290705 0.6195884 0.5031106 0.8190295 0.7098461
0.6279861 0.8942503 0.92894876 0.61277676 0.54751444 0.88767016 0.21109062 0.71661174
0.9491075 0.7781827 0.38508266 0.8263452 0.9649884 0.7837756 0.5786542 0.4699076
1.3361573 1.119992 1.217003 0.921473 0.43225998 0.559978 0.6539156 0.52590007
0.47711363 1.1262224 0.33362496 0.943748 0.62935245 0.6193059 0.56779695 0.7753408
0.79383755 0.7857074 0.66799873 0.56947523 0.5192067 0.53981715 1.0230278 0.72082776
0.6729393 0.68264127 0.49951977 0.7396385 0.94174093 0.29265147 0.73462915 0.7913327
0.78552973 0.4699965 0.88742226 0.5731294 0.8090277 1.0356115 0.77403253 0.65564907
0.6978164 0.60605866 0.6813653 0.5788292 0.7632494 0.54210645 0.506026 0.65486836
0.31384352 0.4834554 0.7831914 0.6053653 0.4589177 0.9406145 0.9156876 0.45384222
0.5703687 0.9664309 0.69574517 0.6137557 0.5696364 1.0575093 0.5928123 1.2113649
1.0587338 0.79425776 0.6114625 0.6472631 0.69143844 0.81467915 0.7206638 1.5621264
0.7156092 0.70536554 0.6706158 0.5180085 0.5649485 0.56668955 0.6763697 0.40308315

net.3.weight f4 [64, 128]
00000000: 52ed e53c ac90 a63c c468 00bd c212 d0bc
00000010: 07c6 003c 2f26 7b3d b710 363d 16ec 6fbd
00000020: 109e c53a be38 dd3d 5026 193d fb13 12bd
00000030: 5f33 93bc debf 60bd a4d8 b73d e6c7 e23c
00000040: 75b7 d93b 5f91 a33c e6fa 07bd bbc5 8b3d
00000050: 548c 4abd 6f74 723d e5ac 893d d946 1dbd
00000060: 69ca ddbb f78b 2abd 0ed7 1c3d 4d83 353d
00000070: cdc3 1b3d 3b92 623c 2968 533d 8b10 a23d
00000080: 4eb1 ba3d e038 5d3d f396 1e3d 4f86 193d
00000090: 53b9 453d cea3 1b3d a9b4 8bbd f3a7 073d
000000a0: 5ef4 383d abd1 13bd 1ddd b43c b7d6 a13c
000000b0: 5eb1 54bb 7392 4a3d 76d3 80bd 03dd febc
000000c0: 5689 c539 1218 733d 6b5c c23d 78bd 3ebb
000000d0: 8025 4ebd d59d 903d 5b40 3dbd 5c6b a33c
000000e0: aad2 d53c bd2e b83d b2b7 e7bb 9721 193d
000000f0: 3a5e bc3c c7b7 473c 8f75 b43d ab10 8f3d
00000100: 01c2 b1bd 7c3e 8ebd 2f21 a43b 717e 143c
00000110: a2e9 e7bd d847 f63c d169 363d be7f c8bc
00000120: edf2 1dbd 04bd 36bd fb5f e8bd a282 04bd
00000130: eb11 78bd 61ce b5bd 76a7 32bd 9883 d1bb
00000140: be76 e03c f2ef f13c 7400 9dbd 0ead 6dbc
00000150: 4d96 99bd e060 f63b 4c24 8ebd a1db ad3c
00000160: c054 643d 7498 863d 7fa7 013d 1fb8 803d
00000170: 41b3 04bc c8a5 403d 8931 a13d 3239 c9ba
00000180: eaab d2bd 91d0 f63c 42e1 5e3d d152 7d3d
00000190: 6736 5cbd 8d19 2abd cf45 e33b 970e e1bb
000001a0: b178 503d f739 ddbb e3d2 9fbd 4cc3 013d
000001b0: c495 21bd d6c4 a13d c417 65bd bb85 4e39
000001c0: 124c b3bb c406 e03d 1d82 2fbd f0a9 3abd
000001d0: ba3a e13c 62e6 9fbd c468 6fbd 2f16 9b3d
000001e0: cf8d 99bd 78d3 243d 70e4 6f3c 6849 e3bb
000001f0: cead 7dbd bfd0 973d 6b5f 053d 269c b03c
00000200: 6e14 7cbc b878 dbbc 517d 0e3d 6480 a33d
00000210: e55f 1c3d fcf3 fa3c 9074 dabd 0bef 1dbe
00000220: 8561 6cbd 64c4 223c 3ec8 2a3d 5ab8 08bd
00000230: 9bb5 8d3c 47c1 213d a645 8b3d e498 48bd
00000240: 9286 7c3c f2aa 63bc 3b7b 35bd b591 abbb
00000250: 1e34 1fbd 3465 ed3d 87d9 fb3c 6d17 4abd
00000260: 90da 283a b390 81bd 2c64 853d 98d3 26bd
00000270: 6e94 df3d 155e 9d3c 0e27 7a3d 362d a43c
00000280: 4e39 a23d 6539 ad3b 692d 833c c658 af3d
00000290: fe6e 9fbc 3c89 2e3d d3e9 0fbe f084 5d3d
000002a0: f1ad 97bd 68cf 703d 5999 a93c 9384 82bd
000002b0: 6b15 23bd 32d1 90bc 75c8 29bb 7e47 033e
000002c0: 8496 9dbb 2c85 593d cfe1 f53c ece9 abbc
000002d0: 5647 923d d882 c7bc 3924 953b fc78 7bbc
000002e0: e085 24bd 36d8 793d f0be 693d aa10 163d
000002f0: 8116 0c3d eff8 e53d 6510 a23d 1338 a73d
00000300: 9acc 17bd 1346 d8bc 14ff 3f3d 06a1 2ebd
00000310: 2344 efbd f6c9 bb3d e192 8c3d 3b48 a43c
00000320: 839f c43d 270d 823d b438 36bd 1f5a 283d
00000330: 6150 653c 7b78 f4bd c65c 54bd b70e 82bd
00000340: f82d 69bd fd5f 84bd cbdf fdbd f540 8cbd
00000350: 77de 003d 369b 63bd ee3b 183c 07b4 8c3d
00000360: 2121 943d e48c d13d fec9 8a3d 26e3 54bd
00000370: f5d3 c43c 6a50 bcbd 837c 0c3d dd8d 3e3d
00000380: 386d 05be be33 5fbc 30ce 583d 5117 413b
00000390: 5189 c13c 0cef 01bd 2e94 02bd 914e 393d
000003a0: f075 c83d 0415 2b3a 7482 43bd 2ebf a0bd
000003b0: 447a 503b 9519 ba3d f9c4 813d 05c9 6abc
000003c0: a82e 8ebd a08b 5f3c bf95 863c 9ee4 9a3d
000003d0: e43d 08bd 4a5b 9fbc 3606 193c fc12 1b3d
000003e0: 1952 d63c 1bc2 6b3d 7b17 8c3d 47ae 34bd
000003f0: 5558 73bd 3b8a 96bc 397f 31bd 76c0 bbbd
0.028067265 0.020332657 -0.031349912 -0.02539957 0.007859713 0.06131571 0.044449534 -0.05857476
0.0015077014 0.10801838 0.037390053 -0.035663586 -0.017968832 -0.05487048 0.08976868 0.02768321
0.0066441842 0.01996678 -0.03319826 0.068248235 -0.049450234 0.05919307 0.0672243 -0.038397644
-0.006768514 -0.041637387 0.03829103 0.04431467 0.038028527 0.013828809 0.051613007 0.079133116
0.091158494 0.05400932 0.038718175 0.037481602 0.048272442 0.037998013 -0.068215676 0.033119153
0.04515492 -0.036088627 0.022078091 0.019755704 -0.0032454352 0.04945607 -0.06290333 -0.031111246
0.0003767709 0.059349127 0.094902836 -0.0029104631 -0.05032873 0.07061354 -0.046203952 0.019948654
0.026101429 0.089932896 -0.0070714587 0.03738555 0.02299415 0.012189812 0.08811485 0.06985601
-0.086795814 -0.06945512 0.0050088386 0.009063349 -0.11323859 0.030063555 0.04453451 -0.024474975
-0.03856175 -0.044613853 -0.11346432 -0.032351144 -0.060563963 -0.08877254 -0.043616734 -0.006393861
0.02740037 0.02953336 -0.07666102 -0.0145065915 -0.07499371 0.0075188726 -0.06940517 0.021222891
0.055744886 0.06572047 0.031653877 0.06285118 -0.008099378 0.0470331 0.07870776 -0.0015352129
-0.10286696 0.03012875 0.05441404 0.061846558 -0.05376282 -0.041528273 0.006935812 -0.0068681943
0.05089635 -0.0067512947 -0.07803895 0.03168039 -0.03944947 0.078988716 -0.055930868 0.0001969551
-0.005471715 0.109387904 -0.042848695 -0.04557222 0.027493823 -0.07807614 -0.05844952 0.075725906
-0.07497751 0.040240735 0.014641866 -0.006936241 -0.06193333 0.07412862 0.0325617 0.021558832
-0.01538573 -0.026790962 0.03478748 0.07983473 0.03817739 0.030633919 -0.10666764 -0.15423219
-0.05771019 0.0099345185 0.041694872 -0.033378936 0.01729851 0.039490964 0.06800394 -0.048973933
0.015412943 -0.013895737 -0.044306975 -0.0052358755 -0.038868062 0.115915686 0.030743374 -0.049338747
0.000644126 -0.06326427 0.06513247 -0.040729135 0.109169826 0.0192099 0.0610724 0.02004109
0.07921086 0.005286383 0.016012864 0.08561854 -0.019462105 0.042611346 -0.1405404 0.054081857
-0.074062236 0.058791548 0.020703005 -0.06372943 -0.039815348 -0.017677877 -0.0025906835 0.12820241
-0.0048092026 0.05310552 0.0300149 -0.020985566 0.071425125 -0.024354383 0.004551437 -0.015348669
-0.040166736 0.06099721 0.057066858 0.036636986 0.03420115 0.11229121 0.07913283 0.08164992
-0.037060358 -0.026400601 0.04687412 -0.042634033 -0.11682918 0.0916938 0.068639524 0.020053973
0.09600737 0.06350165 -0.04448767 0.04110157 0.013996215 -0.11937042 -0.05184629 -0.06350463
-0.056928605 -0.06463621 -0.12396201 -0.06848327 0.03146216 -0.055567943 0.009291632 0.06870275
0.07232881 0.10231951 0.06776808 -0.051974438 0.02402685 -0.09195025 0.03429843 0.04652201
-0.13029945 -0.013623176 0.05293101 0.002946336 0.023625048 -0.031722113 -0.031879596 0.045240942
0.0978812 0.0006526264 -0.04773183 -0.07848965 0.0031811157 0.09086911 0.06336398 -0.014330153
-0.06942493 0.013644129 0.016428826 0.075631365 -0.03326215 -0.01945271 0.00933986 0.0378599
0.026162194 0.05755816 0.06840416 -0.044111516 -0.059410412 -0.01837646 -0.04333422 -0.091675684

net.3.bias f4 [64]
00000000: a44b de3a 967d c73c 6fc0 db3c fb5d adbd
00000010: 2930 75bc 5d07 90bd 2d68 0cbc c5f1 1c3c
00000020: 1895 f23c bed9 4c3d 68ad 763d a420 5e3d
00000030: 8cee 0b3c 6ae7 9bbc af8b ef3b 16cd 2bbc
00000040: 497f ba3d 4575 49bc fec0 5abd 7a64 be3c
00000050: cf0a b43d aba6 d1bd b4df e73d 41de 083d
00000060: 1955 333c 3bf3 913c bef7 4dbd 58b7 93bd
00000070: ce22 6fbc 49b8 dabc 5d7a 2ebc d17a 003e
00000080: d425 61bd 9b26 9fbd acc5 613c e1c5 b53c
00000090: 2bb5 8abc 1fd9 18bd 2484 183d 215e 48bd
000000a0: 0976 a23c f2cf c6bc 5e44 f03d a2f9 8b3d
000000b0: ec25 65bd 0d93 853d 34e8 e7bd 6c0c 683d
000000c0: a8d7 5a3d b245 d73c e652 90bd b108 ed3d
000000d0: 5035 88bd c593 a33d b4f3 2bbc 923e b93c
000000e0: d69d 9d3d 908d c93d 9401 b53d af25 cf3d
000000f0: 0b1f 87bd 2104 6fbd a747 8ebd f57d 4dbd
0.0016959799 0.024351876 0.026825158 -0.08465191 -0.014965096 -0.070326544 -0.008569759 0.009579127
0.029612109 0.050012343 0.060223967 0.054230347 0.008540761 -0.019031245 0.0073103528 -0.010485908
0.09106309 -0.012296026 -0.053406708 0.02324127 0.08791124 -0.102368675 0.11321965 0.033415083
0.010945582 0.017816177 -0.050285093 -0.072127044 -0.0145957 -0.026699202 -0.010649291 0.1254685
-0.054967716 -0.07771035 0.013780039 0.022189083 -0.01693209 -0.037316438 0.037235394 -0.048917893
0.019831674 -0.024269078 0.1173179 0.06834723 -0.05594437 0.06522188 -0.11323586 0.05665247
0.053428322 0.02627835 -0.070470616 0.115739234 -0.066507936 0.07987169 -0.010495115 0.022612844
0.076961204 0.09841454 0.08838192 0.101146095 -0.06597718 -0.058353547 -0.0694726 -0.05016895

net.6.weight f4 [1, 64]
00000000: ffcc b63d acc7 ed3d 73c9 9b3d a9ad c2bc
00000010: b39f 39bd 8835 98bd 7ee3 ed3d f2d7 b3bd
00000020: 7e33 693d 05a9 60bc 8f33 cbbd 5bcd ec3d
00000030: c620 10bc 233b c33d e431 95bd 2554 bc3d
00000040: 7058 b33d 9cdb 893d 12bb bdbc 4e08 413c
00000050: d5a5 e93d 0399 823c 5787 fbbd 994f 53be
00000060: 77cf d83d cc75 90bc 4bc1 de3b 2fd3 74bd
00000070: 99e6 b6bc d9c6 6dba a7a6 02be a056 193e
00000080: d565 f6bd 6ff2 3fbc 326a 5dbd 4505 013c
00000090: f572 923d 2196 52bd e1b1 b63d c65d 17bc
000000a0: 3244 ae3c bb65 0cbd 553c 02bf 8321 e53d
000000b0: 4a9a a23d 5b80 ab3d defd ac3c 4286 923d
000000c0: 0bf2 fe3d 48a7 01bc 9660 2cbd 44ef 08be
000000d0: adcd cfbb 009b 003e d7e3 a03d c201 e1bc
000000e0: 0cde ae3d 427f ecbe bb83 9abd 2788 c83d
000000f0: 1bf6 023c 2e06 ab3d 7432 37ba 524f fb3d
0.08925819 0.1161035 0.07606783 -0.023764448 -0.045318317 -0.07432085 0.11615656 -0.08781423
0.056933872 -0.013712172 -0.099219434 0.11562606 -0.008796876 0.09532764 -0.072849065 0.09195737
0.087571025 0.0673134 -0.023160491 0.011781765 0.11408583 0.015942102 -0.122816734 -0.20635833
0.10586446 -0.017634295 0.0067979447 -0.059771713 -0.022326754 -0.0009070463 -0.12758885 0.14974451
-0.12031142 -0.0117155155 -0.054056354 0.0078747915 0.071508326 -0.051412705 0.089206465 -0.009238666
0.021272752 -0.034276705 -0.5087331 0.111880325 0.079395846 0.08374091 0.021117147 0.07154514
0.1244851 -0.007913418 -0.0420843 -0.13372523 -0.006341657 0.12559128 0.07855957 -0.027466659
0.08538446 -0.4619084 -0.07544657 0.09791594 0.007993246 0.08350788 -0.0006988414 0.122709885
